…
['X_normalized_valid']: (18000, 784)
['y_ally_train']: (42000, 1)
['y_ally_valid']: (18000, 1)
['y_advr_1_train']: (42000, 10)
['y_advr_1_valid']: (18000, 10)
['y_advr_2_train']: (42000, 1)
['y_advr_2_valid']: (18000, 1)
================================================================================
++++++++++++++++++++++++++++++++++++pca:ally++++++++++++++++++++++++++++++++++++
----------------------------------------------------------------
        Layer (type)               Output Shape         Param #
================================================================
            Linear-1              [-1, 1, 1024]         339,968
              ReLU-2              [-1, 1, 1024]               0
            Linear-3                 [-1, 1, 1]           1,025
           Sigmoid-4                 [-1, 1, 1]               0
================================================================
Total params: 340,993
Trainable params: 340,993
Non-trainable params: 0
----------------------------------------------------------------
Input size (MB): 0.00
Forward/backward pass size (MB): 0.02
Params size (MB): 1.30
Estimated Total Size (MB): 1.32
----------------------------------------------------------------
================================================================================
+++++++++++++++++++++++++++++++++++pca:advr 1+++++++++++++++++++++++++++++++++++
----------------------------------------------------------------
        Layer (type)               Output Shape         Param #
================================================================
            Linear-1              [-1, 1, 1024]         339,968
              ReLU-2              [-1, 1, 1024]               0
            Linear-3                [-1, 1, 10]          10,250
           Sigmoid-4                [-1, 1, 10]               0
================================================================
Total params: 350,218
Trainable params: 350,218
Non-trainable params: 0
----------------------------------------------------------------
Input size (MB): 0.00
Forward/backward pass size (MB): 0.02
Params size (MB): 1.34
Estimated Total Size (MB): 1.35
----------------------------------------------------------------
================================================================================
+++++++++++++++++++++++++++++++++++pca:advr 2+++++++++++++++++++++++++++++++++++
----------------------------------------------------------------
        Layer (type)               Output Shape         Param #
================================================================
            Linear-1              [-1, 1, 1024]         339,968
              ReLU-2              [-1, 1, 1024]               0
            Linear-3                 [-1, 1, 1]           1,025
           Sigmoid-4                 [-1, 1, 1]               0
================================================================
Total params: 340,993
Trainable params: 340,993
Non-trainable params: 0
----------------------------------------------------------------
Input size (MB): 0.00
Forward/backward pass size (MB): 0.02
Params size (MB): 1.30
Estimated Total Size (MB): 1.32
----------------------------------------------------------------
================================================================================
…
