…
================================================================================
['X_normalized_train']: (640, 1321)
['X_normalized_valid']: (72, 1321)
================================================================================
applying weights_init ...
================================================================================
++++++++++++++++++++++++++++++++++++encoder++++++++++++++++++++++++++++++++++++
----------------------------------------------------------------
        Layer (type)               Output Shape         Param #
================================================================
            Linear-1              [-1, 1, 4086]       5,401,692
              ReLU-2              [-1, 1, 4086]               0
            Linear-3              [-1, 1, 2048]       8,370,176
              Tanh-4              [-1, 1, 2048]               0
================================================================
Total params: 13,771,868
Trainable params: 13,771,868
Non-trainable params: 0
----------------------------------------------------------------
Input size (MB): 0.01
Forward/backward pass size (MB): 0.09
Params size (MB): 52.54
Estimated Total Size (MB): 52.63
----------------------------------------------------------------
================================================================================
++++++++++++++++++++++++++++++++++++++ally++++++++++++++++++++++++++++++++++++++
----------------------------------------------------------------
        Layer (type)               Output Shape         Param #
================================================================
            Linear-1              [-1, 1, 4086]       8,372,214
              ReLU-2              [-1, 1, 4086]               0
            Linear-3                 [-1, 1, 1]           4,087
           Sigmoid-4                 [-1, 1, 1]               0
================================================================
Total params: 8,376,301
Trainable params: 8,376,301
Non-trainable params: 0
----------------------------------------------------------------
Input size (MB): 0.01
Forward/backward pass size (MB): 0.06
Params size (MB): 31.95
Estimated Total Size (MB): 32.02
----------------------------------------------------------------
================================================================================
+++++++++++++++++++++++++++++++++++++advr_1+++++++++++++++++++++++++++++++++++++
----------------------------------------------------------------
        Layer (type)               Output Shape         Param #
================================================================
            Linear-1              [-1, 1, 4086]       8,372,214
              ReLU-2              [-1, 1, 4086]               0
            Linear-3                 [-1, 1, 1]           4,087
           Sigmoid-4                 [-1, 1, 1]               0
================================================================
Total params: 8,376,301
Trainable params: 8,376,301
Non-trainable params: 0
----------------------------------------------------------------
Input size (MB): 0.01
Forward/backward pass size (MB): 0.06
Params size (MB): 31.95
Estimated Total Size (MB): 32.02
----------------------------------------------------------------
================================================================================
+++++++++++++++++++++++++++++++++++++advr_2+++++++++++++++++++++++++++++++++++++
----------------------------------------------------------------
        Layer (type)               Output Shape         Param #
================================================================
            Linear-1              [-1, 1, 4086]       8,372,214
              ReLU-2              [-1, 1, 4086]               0
            Linear-3                 [-1, 1, 3]          12,261
           Sigmoid-4                 [-1, 1, 3]               0
================================================================
Total params: 8,384,475
Trainable params: 8,384,475
Non-trainable params: 0
----------------------------------------------------------------
Input size (MB): 0.01
Forward/backward pass size (MB): 0.06
Params size (MB): 31.98
Estimated Total Size (MB): 32.05
----------------------------------------------------------------
Epoch 	 Encd Train 	 Encd Valid 	 Ally Train 	 Ally Valid 	 Advr 1 Train 	 Advr 1 Valid 	 Advr 2 Train 	 Advr 2 Valid
…
