…
================================================================================
['X_normalized_train']: (640, 1321)
['X_normalized_valid']: (72, 1321)
================================================================================
applying weights_init ...
================================================================================
++++++++++++++++++++++++++++++++++++encoder++++++++++++++++++++++++++++++++++++
----------------------------------------------------------------
        Layer (type)               Output Shape         Param #
================================================================
            Linear-1               [-1, 1, 512]         676,864
              ReLU-2               [-1, 1, 512]               0
            Linear-3               [-1, 1, 256]         131,328
              Tanh-4               [-1, 1, 256]               0
================================================================
Total params: 808,192
Trainable params: 808,192
Non-trainable params: 0
----------------------------------------------------------------
Input size (MB): 0.01
Forward/backward pass size (MB): 0.01
Params size (MB): 3.08
Estimated Total Size (MB): 3.10
----------------------------------------------------------------
================================================================================
++++++++++++++++++++++++++++++++++++++ally++++++++++++++++++++++++++++++++++++++
----------------------------------------------------------------
        Layer (type)               Output Shape         Param #
================================================================
            Linear-1               [-1, 1, 512]         131,584
              ReLU-2               [-1, 1, 512]               0
            Linear-3                 [-1, 1, 1]             513
           Sigmoid-4                 [-1, 1, 1]               0
================================================================
Total params: 132,097
Trainable params: 132,097
Non-trainable params: 0
----------------------------------------------------------------
Input size (MB): 0.00
Forward/backward pass size (MB): 0.01
Params size (MB): 0.50
Estimated Total Size (MB): 0.51
----------------------------------------------------------------
================================================================================
+++++++++++++++++++++++++++++++++++++advr_1+++++++++++++++++++++++++++++++++++++
----------------------------------------------------------------
        Layer (type)               Output Shape         Param #
================================================================
            Linear-1               [-1, 1, 512]         131,584
              ReLU-2               [-1, 1, 512]               0
            Linear-3                 [-1, 1, 1]             513
           Sigmoid-4                 [-1, 1, 1]               0
================================================================
Total params: 132,097
Trainable params: 132,097
Non-trainable params: 0
----------------------------------------------------------------
Input size (MB): 0.00
Forward/backward pass size (MB): 0.01
Params size (MB): 0.50
Estimated Total Size (MB): 0.51
----------------------------------------------------------------
================================================================================
+++++++++++++++++++++++++++++++++++++advr_2+++++++++++++++++++++++++++++++++++++
----------------------------------------------------------------
        Layer (type)               Output Shape         Param #
================================================================
            Linear-1               [-1, 1, 512]         131,584
              ReLU-2               [-1, 1, 512]               0
            Linear-3                 [-1, 1, 3]           1,539
           Sigmoid-4                 [-1, 1, 3]               0
================================================================
Total params: 133,123
Trainable params: 133,123
Non-trainable params: 0
----------------------------------------------------------------
Input size (MB): 0.00
Forward/backward pass size (MB): 0.01
Params size (MB): 0.51
Estimated Total Size (MB): 0.52
----------------------------------------------------------------
Epoch 	 Encd Train 	 Encd Valid 	 Ally Train 	 Ally Valid 	 Advr 1 Train 	 Advr 1 Valid 	 Advr 2 Train 	 Advr 2 Valid
…
