…
================================================================================
['X_normalized_train']: (640, 1321)
['X_normalized_valid']: (72, 1321)
================================================================================
applying weights_init ...
================================================================================
++++++++++++++++++++++++++++++++++++encoder++++++++++++++++++++++++++++++++++++
----------------------------------------------------------------
        Layer (type)               Output Shape         Param #
================================================================
            Linear-1               [-1, 1, 256]         338,432
              ReLU-2               [-1, 1, 256]               0
            Linear-3               [-1, 1, 128]          32,896
              Tanh-4               [-1, 1, 128]               0
================================================================
Total params: 371,328
Trainable params: 371,328
Non-trainable params: 0
----------------------------------------------------------------
Input size (MB): 0.01
Forward/backward pass size (MB): 0.01
Params size (MB): 1.42
Estimated Total Size (MB): 1.43
----------------------------------------------------------------
================================================================================
++++++++++++++++++++++++++++++++++++++ally++++++++++++++++++++++++++++++++++++++
----------------------------------------------------------------
        Layer (type)               Output Shape         Param #
================================================================
            Linear-1               [-1, 1, 256]          33,024
              ReLU-2               [-1, 1, 256]               0
            Linear-3                 [-1, 1, 1]             257
           Sigmoid-4                 [-1, 1, 1]               0
================================================================
Total params: 33,281
Trainable params: 33,281
Non-trainable params: 0
----------------------------------------------------------------
Input size (MB): 0.00
Forward/backward pass size (MB): 0.00
Params size (MB): 0.13
Estimated Total Size (MB): 0.13
----------------------------------------------------------------
================================================================================
+++++++++++++++++++++++++++++++++++++advr_1+++++++++++++++++++++++++++++++++++++
----------------------------------------------------------------
        Layer (type)               Output Shape         Param #
================================================================
            Linear-1               [-1, 1, 256]          33,024
              ReLU-2               [-1, 1, 256]               0
            Linear-3                 [-1, 1, 1]             257
           Sigmoid-4                 [-1, 1, 1]               0
================================================================
Total params: 33,281
Trainable params: 33,281
Non-trainable params: 0
----------------------------------------------------------------
Input size (MB): 0.00
Forward/backward pass size (MB): 0.00
Params size (MB): 0.13
Estimated Total Size (MB): 0.13
----------------------------------------------------------------
================================================================================
+++++++++++++++++++++++++++++++++++++advr_2+++++++++++++++++++++++++++++++++++++
----------------------------------------------------------------
        Layer (type)               Output Shape         Param #
================================================================
            Linear-1               [-1, 1, 256]          33,024
              ReLU-2               [-1, 1, 256]               0
            Linear-3                 [-1, 1, 3]             771
           Sigmoid-4                 [-1, 1, 3]               0
================================================================
Total params: 33,795
Trainable params: 33,795
Non-trainable params: 0
----------------------------------------------------------------
Input size (MB): 0.00
Forward/backward pass size (MB): 0.00
Params size (MB): 0.13
Estimated Total Size (MB): 0.13
----------------------------------------------------------------
Epoch 	 Encd Train 	 Encd Valid 	 Ally Train 	 Ally Valid 	 Advr 1 Train 	 Advr 1 Valid 	 Advr 2 Train 	 Advr 2 Valid
…
