…
================================================================================
['X_normalized_train']: (640, 1321)
['X_normalized_valid']: (72, 1321)
================================================================================
applying weights_init ...
================================================================================
++++++++++++++++++++++++++++++++++++encoder++++++++++++++++++++++++++++++++++++
----------------------------------------------------------------
        Layer (type)               Output Shape         Param #
================================================================
            Linear-1              [-1, 1, 2800]       3,701,600
              ReLU-2              [-1, 1, 2800]               0
            Linear-3              [-1, 1, 1400]       3,921,400
              Tanh-4              [-1, 1, 1400]               0
================================================================
Total params: 7,623,000
Trainable params: 7,623,000
Non-trainable params: 0
----------------------------------------------------------------
Input size (MB): 0.01
Forward/backward pass size (MB): 0.06
Params size (MB): 29.08
Estimated Total Size (MB): 29.15
----------------------------------------------------------------
================================================================================
++++++++++++++++++++++++++++++++++++++ally++++++++++++++++++++++++++++++++++++++
----------------------------------------------------------------
        Layer (type)               Output Shape         Param #
================================================================
            Linear-1              [-1, 1, 2800]       3,922,800
              ReLU-2              [-1, 1, 2800]               0
            Linear-3                 [-1, 1, 1]           2,801
           Sigmoid-4                 [-1, 1, 1]               0
================================================================
Total params: 3,925,601
Trainable params: 3,925,601
Non-trainable params: 0
----------------------------------------------------------------
Input size (MB): 0.01
Forward/backward pass size (MB): 0.04
Params size (MB): 14.97
Estimated Total Size (MB): 15.02
----------------------------------------------------------------
================================================================================
+++++++++++++++++++++++++++++++++++++advr_1+++++++++++++++++++++++++++++++++++++
----------------------------------------------------------------
        Layer (type)               Output Shape         Param #
================================================================
            Linear-1              [-1, 1, 2800]       3,922,800
              ReLU-2              [-1, 1, 2800]               0
            Linear-3                 [-1, 1, 1]           2,801
           Sigmoid-4                 [-1, 1, 1]               0
================================================================
Total params: 3,925,601
Trainable params: 3,925,601
Non-trainable params: 0
----------------------------------------------------------------
Input size (MB): 0.01
Forward/backward pass size (MB): 0.04
Params size (MB): 14.97
Estimated Total Size (MB): 15.02
----------------------------------------------------------------
================================================================================
+++++++++++++++++++++++++++++++++++++advr_2+++++++++++++++++++++++++++++++++++++
----------------------------------------------------------------
        Layer (type)               Output Shape         Param #
================================================================
            Linear-1              [-1, 1, 2800]       3,922,800
              ReLU-2              [-1, 1, 2800]               0
            Linear-3                 [-1, 1, 3]           8,403
           Sigmoid-4                 [-1, 1, 3]               0
================================================================
Total params: 3,931,203
Trainable params: 3,931,203
Non-trainable params: 0
----------------------------------------------------------------
Input size (MB): 0.01
Forward/backward pass size (MB): 0.04
Params size (MB): 15.00
Estimated Total Size (MB): 15.04
----------------------------------------------------------------
Epoch 	 Encd Train 	 Encd Valid 	 Ally Train 	 Ally Valid 	 Advr 1 Train 	 Advr 1 Valid 	 Advr 2 Train 	 Advr 2 Valid
…
