…
================================================================================
['X_normalized_train']: (640, 1321)
['X_normalized_valid']: (72, 1321)
================================================================================
applying weights_init ...
================================================================================
++++++++++++++++++++++++++++++++++++encoder++++++++++++++++++++++++++++++++++++
----------------------------------------------------------------
        Layer (type)               Output Shape         Param #
================================================================
            Linear-1              [-1, 1, 1024]       1,353,728
              ReLU-2              [-1, 1, 1024]               0
            Linear-3               [-1, 1, 512]         524,800
              Tanh-4               [-1, 1, 512]               0
================================================================
Total params: 1,878,528
Trainable params: 1,878,528
Non-trainable params: 0
----------------------------------------------------------------
Input size (MB): 0.01
Forward/backward pass size (MB): 0.02
Params size (MB): 7.17
Estimated Total Size (MB): 7.19
----------------------------------------------------------------
================================================================================
++++++++++++++++++++++++++++++++++++++ally++++++++++++++++++++++++++++++++++++++
----------------------------------------------------------------
        Layer (type)               Output Shape         Param #
================================================================
            Linear-1              [-1, 1, 1024]         525,312
              ReLU-2              [-1, 1, 1024]               0
            Linear-3                 [-1, 1, 1]           1,025
           Sigmoid-4                 [-1, 1, 1]               0
================================================================
Total params: 526,337
Trainable params: 526,337
Non-trainable params: 0
----------------------------------------------------------------
Input size (MB): 0.00
Forward/backward pass size (MB): 0.02
Params size (MB): 2.01
Estimated Total Size (MB): 2.03
----------------------------------------------------------------
================================================================================
+++++++++++++++++++++++++++++++++++++advr_1+++++++++++++++++++++++++++++++++++++
----------------------------------------------------------------
        Layer (type)               Output Shape         Param #
================================================================
            Linear-1              [-1, 1, 1024]         525,312
              ReLU-2              [-1, 1, 1024]               0
            Linear-3                 [-1, 1, 1]           1,025
           Sigmoid-4                 [-1, 1, 1]               0
================================================================
Total params: 526,337
Trainable params: 526,337
Non-trainable params: 0
----------------------------------------------------------------
Input size (MB): 0.00
Forward/backward pass size (MB): 0.02
Params size (MB): 2.01
Estimated Total Size (MB): 2.03
----------------------------------------------------------------
================================================================================
+++++++++++++++++++++++++++++++++++++advr_2+++++++++++++++++++++++++++++++++++++
----------------------------------------------------------------
        Layer (type)               Output Shape         Param #
================================================================
            Linear-1              [-1, 1, 1024]         525,312
              ReLU-2              [-1, 1, 1024]               0
            Linear-3                 [-1, 1, 3]           3,075
           Sigmoid-4                 [-1, 1, 3]               0
================================================================
Total params: 528,387
Trainable params: 528,387
Non-trainable params: 0
----------------------------------------------------------------
Input size (MB): 0.00
Forward/backward pass size (MB): 0.02
Params size (MB): 2.02
Estimated Total Size (MB): 2.03
----------------------------------------------------------------
Epoch 	 Encd Train 	 Encd Valid 	 Ally Train 	 Ally Valid 	 Advr 1 Train 	 Advr 1 Valid 	 Advr 2 Train 	 Advr 2 Valid
…
