…
['y_advr_1_valid']: (72,)
['y_advr_2_train']: (640, 3)
['y_advr_2_valid']: (72, 3)
================================================================================
['X_normalized_train']: (640, 1321)
['X_normalized_valid']: (72, 1321)
================================================================================
++++++++++++++++++++++++++++++++++encoder:ally++++++++++++++++++++++++++++++++++
----------------------------------------------------------------
        Layer (type)               Output Shape         Param #
================================================================
            Linear-1              [-1, 1, 2800]       3,922,800
              ReLU-2              [-1, 1, 2800]               0
            Linear-3                 [-1, 1, 1]           2,801
           Sigmoid-4                 [-1, 1, 1]               0
================================================================
Total params: 3,925,601
Trainable params: 3,925,601
Non-trainable params: 0
----------------------------------------------------------------
Input size (MB): 0.01
Forward/backward pass size (MB): 0.04
Params size (MB): 14.97
Estimated Total Size (MB): 15.02
----------------------------------------------------------------
================================================================================
+++++++++++++++++++++++++++++++++encoder:advr 1+++++++++++++++++++++++++++++++++
----------------------------------------------------------------
        Layer (type)               Output Shape         Param #
================================================================
            Linear-1              [-1, 1, 2800]       3,922,800
              ReLU-2              [-1, 1, 2800]               0
            Linear-3                 [-1, 1, 1]           2,801
           Sigmoid-4                 [-1, 1, 1]               0
================================================================
Total params: 3,925,601
Trainable params: 3,925,601
Non-trainable params: 0
----------------------------------------------------------------
Input size (MB): 0.01
Forward/backward pass size (MB): 0.04
Params size (MB): 14.97
Estimated Total Size (MB): 15.02
----------------------------------------------------------------
================================================================================
+++++++++++++++++++++++++++++++++encoder:advr 2+++++++++++++++++++++++++++++++++
----------------------------------------------------------------
        Layer (type)               Output Shape         Param #
================================================================
            Linear-1              [-1, 1, 2800]       3,922,800
              ReLU-2              [-1, 1, 2800]               0
            Linear-3                 [-1, 1, 3]           8,403
           Sigmoid-4                 [-1, 1, 3]               0
================================================================
Total params: 3,931,203
Trainable params: 3,931,203
Non-trainable params: 0
----------------------------------------------------------------
Input size (MB): 0.01
Forward/backward pass size (MB): 0.04
Params size (MB): 15.00
Estimated Total Size (MB): 15.04
----------------------------------------------------------------
================================================================================
…
