…
['y_advr_1_valid']: (72,)
['y_advr_2_train']: (640, 3)
['y_advr_2_valid']: (72, 3)
================================================================================
['X_normalized_train']: (640, 1321)
['X_normalized_valid']: (72, 1321)
================================================================================
++++++++++++++++++++++++++++++++autoencoder:ally++++++++++++++++++++++++++++++++
----------------------------------------------------------------
        Layer (type)               Output Shape         Param #
================================================================
            Linear-1              [-1, 1, 1000]         589,000
         LeakyReLU-2              [-1, 1, 1000]               0
            Linear-3                 [-1, 1, 1]           1,001
           Sigmoid-4                 [-1, 1, 1]               0
================================================================
Total params: 590,001
Trainable params: 590,001
Non-trainable params: 0
----------------------------------------------------------------
Input size (MB): 0.00
Forward/backward pass size (MB): 0.02
Params size (MB): 2.25
Estimated Total Size (MB): 2.27
----------------------------------------------------------------
================================================================================
+++++++++++++++++++++++++++++++autoencoder:advr 1+++++++++++++++++++++++++++++++
----------------------------------------------------------------
        Layer (type)               Output Shape         Param #
================================================================
            Linear-1              [-1, 1, 1000]         589,000
         LeakyReLU-2              [-1, 1, 1000]               0
            Linear-3                 [-1, 1, 1]           1,001
           Sigmoid-4                 [-1, 1, 1]               0
================================================================
Total params: 590,001
Trainable params: 590,001
Non-trainable params: 0
----------------------------------------------------------------
Input size (MB): 0.00
Forward/backward pass size (MB): 0.02
Params size (MB): 2.25
Estimated Total Size (MB): 2.27
----------------------------------------------------------------
================================================================================
+++++++++++++++++++++++++++++++autoencoder:advr 2+++++++++++++++++++++++++++++++
----------------------------------------------------------------
        Layer (type)               Output Shape         Param #
================================================================
            Linear-1              [-1, 1, 1000]         589,000
         LeakyReLU-2              [-1, 1, 1000]               0
            Linear-3                 [-1, 1, 3]           3,003
           Sigmoid-4                 [-1, 1, 3]               0
================================================================
Total params: 592,003
Trainable params: 592,003
Non-trainable params: 0
----------------------------------------------------------------
Input size (MB): 0.00
Forward/backward pass size (MB): 0.02
Params size (MB): 2.26
Estimated Total Size (MB): 2.28
----------------------------------------------------------------
================================================================================
…
