…
['y_advr_1_valid']: (72,)
['y_advr_2_train']: (640, 3)
['y_advr_2_valid']: (72, 3)
================================================================================
['X_normalized_train']: (640, 1321)
['X_normalized_valid']: (72, 1321)
================================================================================
++++++++++++++++++++++++++++++++++++dp:ally++++++++++++++++++++++++++++++++++++
----------------------------------------------------------------
        Layer (type)               Output Shape         Param #
================================================================
            Linear-1              [-1, 1, 2000]       2,644,000
              ReLU-2              [-1, 1, 2000]               0
            Linear-3                 [-1, 1, 1]           2,001
           Sigmoid-4                 [-1, 1, 1]               0
================================================================
Total params: 2,646,001
Trainable params: 2,646,001
Non-trainable params: 0
----------------------------------------------------------------
Input size (MB): 0.01
Forward/backward pass size (MB): 0.03
Params size (MB): 10.09
Estimated Total Size (MB): 10.13
----------------------------------------------------------------
================================================================================
+++++++++++++++++++++++++++++++++++dp:advr 1+++++++++++++++++++++++++++++++++++
----------------------------------------------------------------
        Layer (type)               Output Shape         Param #
================================================================
            Linear-1              [-1, 1, 2000]       2,644,000
              ReLU-2              [-1, 1, 2000]               0
            Linear-3                 [-1, 1, 1]           2,001
           Sigmoid-4                 [-1, 1, 1]               0
================================================================
Total params: 2,646,001
Trainable params: 2,646,001
Non-trainable params: 0
----------------------------------------------------------------
Input size (MB): 0.01
Forward/backward pass size (MB): 0.03
Params size (MB): 10.09
Estimated Total Size (MB): 10.13
----------------------------------------------------------------
================================================================================
+++++++++++++++++++++++++++++++++++dp:advr 2+++++++++++++++++++++++++++++++++++
----------------------------------------------------------------
        Layer (type)               Output Shape         Param #
================================================================
            Linear-1              [-1, 1, 2000]       2,644,000
              ReLU-2              [-1, 1, 2000]               0
            Linear-3                 [-1, 1, 3]           6,003
           Sigmoid-4                 [-1, 1, 3]               0
================================================================
Total params: 2,650,003
Trainable params: 2,650,003
Non-trainable params: 0
----------------------------------------------------------------
Input size (MB): 0.01
Forward/backward pass size (MB): 0.03
Params size (MB): 10.11
Estimated Total Size (MB): 10.14
----------------------------------------------------------------
================================================================================
…
