…
================================================================================
['X_normalized_train']: (41283, 168)
['X_normalized_valid']: (17693, 168)
================================================================================
applying weights_init ...
================================================================================
++++++++++++++++++++++++++++++++++++encoder++++++++++++++++++++++++++++++++++++
----------------------------------------------------------------
        Layer (type)               Output Shape         Param #
================================================================
            Linear-1               [-1, 1, 128]          21,632
              ReLU-2               [-1, 1, 128]               0
            Linear-3                [-1, 1, 64]           8,256
              Tanh-4                [-1, 1, 64]               0
================================================================
Total params: 29,888
Trainable params: 29,888
Non-trainable params: 0
----------------------------------------------------------------
Input size (MB): 0.00
Forward/backward pass size (MB): 0.00
Params size (MB): 0.11
Estimated Total Size (MB): 0.12
----------------------------------------------------------------
================================================================================
++++++++++++++++++++++++++++++++++++++ally++++++++++++++++++++++++++++++++++++++
----------------------------------------------------------------
        Layer (type)               Output Shape         Param #
================================================================
            Linear-1               [-1, 1, 128]           8,320
              ReLU-2               [-1, 1, 128]               0
            Linear-3                 [-1, 1, 1]             129
           Sigmoid-4                 [-1, 1, 1]               0
================================================================
Total params: 8,449
Trainable params: 8,449
Non-trainable params: 0
----------------------------------------------------------------
Input size (MB): 0.00
Forward/backward pass size (MB): 0.00
Params size (MB): 0.03
Estimated Total Size (MB): 0.03
----------------------------------------------------------------
================================================================================
+++++++++++++++++++++++++++++++++++++advr_1+++++++++++++++++++++++++++++++++++++
----------------------------------------------------------------
        Layer (type)               Output Shape         Param #
================================================================
            Linear-1               [-1, 1, 128]           8,320
              ReLU-2               [-1, 1, 128]               0
            Linear-3                 [-1, 1, 1]             129
           Sigmoid-4                 [-1, 1, 1]               0
================================================================
Total params: 8,449
Trainable params: 8,449
Non-trainable params: 0
----------------------------------------------------------------
Input size (MB): 0.00
Forward/backward pass size (MB): 0.00
Params size (MB): 0.03
Estimated Total Size (MB): 0.03
----------------------------------------------------------------
================================================================================
+++++++++++++++++++++++++++++++++++++advr_2+++++++++++++++++++++++++++++++++++++
----------------------------------------------------------------
        Layer (type)               Output Shape         Param #
================================================================
            Linear-1               [-1, 1, 128]           8,320
              ReLU-2               [-1, 1, 128]               0
            Linear-3                 [-1, 1, 1]             129
           Sigmoid-4                 [-1, 1, 1]               0
================================================================
Total params: 8,449
Trainable params: 8,449
Non-trainable params: 0
----------------------------------------------------------------
Input size (MB): 0.00
Forward/backward pass size (MB): 0.00
Params size (MB): 0.03
Estimated Total Size (MB): 0.03
----------------------------------------------------------------
Epoch 	 Encd Train 	 Encd Valid 	 Ally Train 	 Ally Valid 	 Advr 1 Train 	 Advr 1 Valid 	 Advr 2 Train 	 Advr 2 Valid
…
