…
================================================================================
['X_normalized_train']: (41283, 168)
['X_normalized_valid']: (17693, 168)
================================================================================
applying weights_init ...
================================================================================
++++++++++++++++++++++++++++++++++++encoder++++++++++++++++++++++++++++++++++++
----------------------------------------------------------------
        Layer (type)               Output Shape         Param #
================================================================
            Linear-1                 [-1, 1, 8]           1,352
              ReLU-2                 [-1, 1, 8]               0
            Linear-3                 [-1, 1, 4]              36
              Tanh-4                 [-1, 1, 4]               0
================================================================
Total params: 1,388
Trainable params: 1,388
Non-trainable params: 0
----------------------------------------------------------------
Input size (MB): 0.00
Forward/backward pass size (MB): 0.00
Params size (MB): 0.01
Estimated Total Size (MB): 0.01
----------------------------------------------------------------
================================================================================
++++++++++++++++++++++++++++++++++++++ally++++++++++++++++++++++++++++++++++++++
----------------------------------------------------------------
        Layer (type)               Output Shape         Param #
================================================================
            Linear-1                 [-1, 1, 8]              40
              ReLU-2                 [-1, 1, 8]               0
            Linear-3                 [-1, 1, 1]               9
           Sigmoid-4                 [-1, 1, 1]               0
================================================================
Total params: 49
Trainable params: 49
Non-trainable params: 0
----------------------------------------------------------------
Input size (MB): 0.00
Forward/backward pass size (MB): 0.00
Params size (MB): 0.00
Estimated Total Size (MB): 0.00
----------------------------------------------------------------
================================================================================
+++++++++++++++++++++++++++++++++++++advr_1+++++++++++++++++++++++++++++++++++++
----------------------------------------------------------------
        Layer (type)               Output Shape         Param #
================================================================
            Linear-1                 [-1, 1, 8]              40
              ReLU-2                 [-1, 1, 8]               0
            Linear-3                 [-1, 1, 1]               9
           Sigmoid-4                 [-1, 1, 1]               0
================================================================
Total params: 49
Trainable params: 49
Non-trainable params: 0
----------------------------------------------------------------
Input size (MB): 0.00
Forward/backward pass size (MB): 0.00
Params size (MB): 0.00
Estimated Total Size (MB): 0.00
----------------------------------------------------------------
================================================================================
+++++++++++++++++++++++++++++++++++++advr_2+++++++++++++++++++++++++++++++++++++
----------------------------------------------------------------
        Layer (type)               Output Shape         Param #
================================================================
            Linear-1                 [-1, 1, 8]              40
              ReLU-2                 [-1, 1, 8]               0
            Linear-3                 [-1, 1, 1]               9
           Sigmoid-4                 [-1, 1, 1]               0
================================================================
Total params: 49
Trainable params: 49
Non-trainable params: 0
----------------------------------------------------------------
Input size (MB): 0.00
Forward/backward pass size (MB): 0.00
Params size (MB): 0.00
Estimated Total Size (MB): 0.00
----------------------------------------------------------------
Epoch 	 Encd Train 	 Encd Valid 	 Ally Train 	 Ally Valid 	 Advr 1 Train 	 Advr 1 Valid 	 Advr 2 Train 	 Advr 2 Valid
…
