…
================================================================================
['X_normalized_train']: (41283, 168)
['X_normalized_valid']: (17693, 168)
================================================================================
applying weights_init ...
================================================================================
++++++++++++++++++++++++++++++++++++encoder++++++++++++++++++++++++++++++++++++
----------------------------------------------------------------
        Layer (type)               Output Shape         Param #
================================================================
            Linear-1                [-1, 1, 64]          10,816
              ReLU-2                [-1, 1, 64]               0
            Linear-3                [-1, 1, 32]           2,080
              Tanh-4                [-1, 1, 32]               0
================================================================
Total params: 12,896
Trainable params: 12,896
Non-trainable params: 0
----------------------------------------------------------------
Input size (MB): 0.00
Forward/backward pass size (MB): 0.00
Params size (MB): 0.05
Estimated Total Size (MB): 0.05
----------------------------------------------------------------
================================================================================
++++++++++++++++++++++++++++++++++++++ally++++++++++++++++++++++++++++++++++++++
----------------------------------------------------------------
        Layer (type)               Output Shape         Param #
================================================================
            Linear-1                [-1, 1, 64]           2,112
              ReLU-2                [-1, 1, 64]               0
            Linear-3                 [-1, 1, 1]              65
           Sigmoid-4                 [-1, 1, 1]               0
================================================================
Total params: 2,177
Trainable params: 2,177
Non-trainable params: 0
----------------------------------------------------------------
Input size (MB): 0.00
Forward/backward pass size (MB): 0.00
Params size (MB): 0.01
Estimated Total Size (MB): 0.01
----------------------------------------------------------------
================================================================================
+++++++++++++++++++++++++++++++++++++advr_1+++++++++++++++++++++++++++++++++++++
----------------------------------------------------------------
        Layer (type)               Output Shape         Param #
================================================================
            Linear-1                [-1, 1, 64]           2,112
              ReLU-2                [-1, 1, 64]               0
            Linear-3                 [-1, 1, 1]              65
           Sigmoid-4                 [-1, 1, 1]               0
================================================================
Total params: 2,177
Trainable params: 2,177
Non-trainable params: 0
----------------------------------------------------------------
Input size (MB): 0.00
Forward/backward pass size (MB): 0.00
Params size (MB): 0.01
Estimated Total Size (MB): 0.01
----------------------------------------------------------------
================================================================================
+++++++++++++++++++++++++++++++++++++advr_2+++++++++++++++++++++++++++++++++++++
----------------------------------------------------------------
        Layer (type)               Output Shape         Param #
================================================================
            Linear-1                [-1, 1, 64]           2,112
              ReLU-2                [-1, 1, 64]               0
            Linear-3                 [-1, 1, 1]              65
           Sigmoid-4                 [-1, 1, 1]               0
================================================================
Total params: 2,177
Trainable params: 2,177
Non-trainable params: 0
----------------------------------------------------------------
Input size (MB): 0.00
Forward/backward pass size (MB): 0.00
Params size (MB): 0.01
Estimated Total Size (MB): 0.01
----------------------------------------------------------------
Epoch 	 Encd Train 	 Encd Valid 	 Ally Train 	 Ally Valid 	 Advr 1 Train 	 Advr 1 Valid 	 Advr 2 Train 	 Advr 2 Valid
…
