…
================================================================================
['X_normalized_train']: (41283, 168)
['X_normalized_valid']: (17693, 168)
================================================================================
applying weights_init ...
================================================================================
++++++++++++++++++++++++++++++++++++encoder++++++++++++++++++++++++++++++++++++
----------------------------------------------------------------
        Layer (type)               Output Shape         Param #
================================================================
            Linear-1              [-1, 1, 4096]         692,224
              ReLU-2              [-1, 1, 4096]               0
            Linear-3              [-1, 1, 2048]       8,390,656
              Tanh-4              [-1, 1, 2048]               0
================================================================
Total params: 9,082,880
Trainable params: 9,082,880
Non-trainable params: 0
----------------------------------------------------------------
Input size (MB): 0.00
Forward/backward pass size (MB): 0.09
Params size (MB): 34.65
Estimated Total Size (MB): 34.74
----------------------------------------------------------------
================================================================================
++++++++++++++++++++++++++++++++++++++ally++++++++++++++++++++++++++++++++++++++
----------------------------------------------------------------
        Layer (type)               Output Shape         Param #
================================================================
            Linear-1              [-1, 1, 4096]       8,392,704
              ReLU-2              [-1, 1, 4096]               0
            Linear-3                 [-1, 1, 1]           4,097
           Sigmoid-4                 [-1, 1, 1]               0
================================================================
Total params: 8,396,801
Trainable params: 8,396,801
Non-trainable params: 0
----------------------------------------------------------------
Input size (MB): 0.01
Forward/backward pass size (MB): 0.06
Params size (MB): 32.03
Estimated Total Size (MB): 32.10
----------------------------------------------------------------
================================================================================
+++++++++++++++++++++++++++++++++++++advr_1+++++++++++++++++++++++++++++++++++++
----------------------------------------------------------------
        Layer (type)               Output Shape         Param #
================================================================
            Linear-1              [-1, 1, 4096]       8,392,704
              ReLU-2              [-1, 1, 4096]               0
            Linear-3                 [-1, 1, 1]           4,097
           Sigmoid-4                 [-1, 1, 1]               0
================================================================
Total params: 8,396,801
Trainable params: 8,396,801
Non-trainable params: 0
----------------------------------------------------------------
Input size (MB): 0.01
Forward/backward pass size (MB): 0.06
Params size (MB): 32.03
Estimated Total Size (MB): 32.10
----------------------------------------------------------------
================================================================================
+++++++++++++++++++++++++++++++++++++advr_2+++++++++++++++++++++++++++++++++++++
----------------------------------------------------------------
        Layer (type)               Output Shape         Param #
================================================================
            Linear-1              [-1, 1, 4096]       8,392,704
              ReLU-2              [-1, 1, 4096]               0
            Linear-3                 [-1, 1, 1]           4,097
           Sigmoid-4                 [-1, 1, 1]               0
================================================================
Total params: 8,396,801
Trainable params: 8,396,801
Non-trainable params: 0
----------------------------------------------------------------
Input size (MB): 0.01
Forward/backward pass size (MB): 0.06
Params size (MB): 32.03
Estimated Total Size (MB): 32.10
----------------------------------------------------------------
Epoch 	 Encd Train 	 Encd Valid 	 Ally Train 	 Ally Valid 	 Advr 1 Train 	 Advr 1 Valid 	 Advr 2 Train 	 Advr 2 Valid
…
