…
================================================================================
['X_normalized_train']: (41283, 168)
['X_normalized_valid']: (17693, 168)
================================================================================
applying weights_init ...
================================================================================
++++++++++++++++++++++++++++++++++++encoder++++++++++++++++++++++++++++++++++++
----------------------------------------------------------------
        Layer (type)               Output Shape         Param #
================================================================
            Linear-1               [-1, 1, 256]          43,264
              ReLU-2               [-1, 1, 256]               0
            Linear-3               [-1, 1, 128]          32,896
              Tanh-4               [-1, 1, 128]               0
================================================================
Total params: 76,160
Trainable params: 76,160
Non-trainable params: 0
----------------------------------------------------------------
Input size (MB): 0.00
Forward/backward pass size (MB): 0.01
Params size (MB): 0.29
Estimated Total Size (MB): 0.30
----------------------------------------------------------------
================================================================================
++++++++++++++++++++++++++++++++++++++ally++++++++++++++++++++++++++++++++++++++
----------------------------------------------------------------
        Layer (type)               Output Shape         Param #
================================================================
            Linear-1               [-1, 1, 256]          33,024
              ReLU-2               [-1, 1, 256]               0
            Linear-3                 [-1, 1, 1]             257
           Sigmoid-4                 [-1, 1, 1]               0
================================================================
Total params: 33,281
Trainable params: 33,281
Non-trainable params: 0
----------------------------------------------------------------
Input size (MB): 0.00
Forward/backward pass size (MB): 0.00
Params size (MB): 0.13
Estimated Total Size (MB): 0.13
----------------------------------------------------------------
================================================================================
+++++++++++++++++++++++++++++++++++++advr_1+++++++++++++++++++++++++++++++++++++
----------------------------------------------------------------
        Layer (type)               Output Shape         Param #
================================================================
            Linear-1               [-1, 1, 256]          33,024
              ReLU-2               [-1, 1, 256]               0
            Linear-3                 [-1, 1, 1]             257
           Sigmoid-4                 [-1, 1, 1]               0
================================================================
Total params: 33,281
Trainable params: 33,281
Non-trainable params: 0
----------------------------------------------------------------
Input size (MB): 0.00
Forward/backward pass size (MB): 0.00
Params size (MB): 0.13
Estimated Total Size (MB): 0.13
----------------------------------------------------------------
================================================================================
+++++++++++++++++++++++++++++++++++++advr_2+++++++++++++++++++++++++++++++++++++
----------------------------------------------------------------
        Layer (type)               Output Shape         Param #
================================================================
            Linear-1               [-1, 1, 256]          33,024
              ReLU-2               [-1, 1, 256]               0
            Linear-3                 [-1, 1, 1]             257
           Sigmoid-4                 [-1, 1, 1]               0
================================================================
Total params: 33,281
Trainable params: 33,281
Non-trainable params: 0
----------------------------------------------------------------
Input size (MB): 0.00
Forward/backward pass size (MB): 0.00
Params size (MB): 0.13
Estimated Total Size (MB): 0.13
----------------------------------------------------------------
Epoch 	 Encd Train 	 Encd Valid 	 Ally Train 	 Ally Valid 	 Advr 1 Train 	 Advr 1 Valid 	 Advr 2 Train 	 Advr 2 Valid
…
