…
================================================================================
['X_normalized_train']: (41283, 168)
['X_normalized_valid']: (17693, 168)
================================================================================
applying weights_init ...
================================================================================
++++++++++++++++++++++++++++++++++++encoder++++++++++++++++++++++++++++++++++++
----------------------------------------------------------------
        Layer (type)               Output Shape         Param #
================================================================
            Linear-1              [-1, 1, 2048]         346,112
              ReLU-2              [-1, 1, 2048]               0
            Linear-3              [-1, 1, 1024]       2,098,176
              Tanh-4              [-1, 1, 1024]               0
================================================================
Total params: 2,444,288
Trainable params: 2,444,288
Non-trainable params: 0
----------------------------------------------------------------
Input size (MB): 0.00
Forward/backward pass size (MB): 0.05
Params size (MB): 9.32
Estimated Total Size (MB): 9.37
----------------------------------------------------------------
================================================================================
++++++++++++++++++++++++++++++++++++++ally++++++++++++++++++++++++++++++++++++++
----------------------------------------------------------------
        Layer (type)               Output Shape         Param #
================================================================
            Linear-1              [-1, 1, 2048]       2,099,200
              ReLU-2              [-1, 1, 2048]               0
            Linear-3                 [-1, 1, 1]           2,049
           Sigmoid-4                 [-1, 1, 1]               0
================================================================
Total params: 2,101,249
Trainable params: 2,101,249
Non-trainable params: 0
----------------------------------------------------------------
Input size (MB): 0.00
Forward/backward pass size (MB): 0.03
Params size (MB): 8.02
Estimated Total Size (MB): 8.05
----------------------------------------------------------------
================================================================================
+++++++++++++++++++++++++++++++++++++advr_1+++++++++++++++++++++++++++++++++++++
----------------------------------------------------------------
        Layer (type)               Output Shape         Param #
================================================================
            Linear-1              [-1, 1, 2048]       2,099,200
              ReLU-2              [-1, 1, 2048]               0
            Linear-3                 [-1, 1, 1]           2,049
           Sigmoid-4                 [-1, 1, 1]               0
================================================================
Total params: 2,101,249
Trainable params: 2,101,249
Non-trainable params: 0
----------------------------------------------------------------
Input size (MB): 0.00
Forward/backward pass size (MB): 0.03
Params size (MB): 8.02
Estimated Total Size (MB): 8.05
----------------------------------------------------------------
================================================================================
+++++++++++++++++++++++++++++++++++++advr_2+++++++++++++++++++++++++++++++++++++
----------------------------------------------------------------
        Layer (type)               Output Shape         Param #
================================================================
            Linear-1              [-1, 1, 2048]       2,099,200
              ReLU-2              [-1, 1, 2048]               0
            Linear-3                 [-1, 1, 1]           2,049
           Sigmoid-4                 [-1, 1, 1]               0
================================================================
Total params: 2,101,249
Trainable params: 2,101,249
Non-trainable params: 0
----------------------------------------------------------------
Input size (MB): 0.00
Forward/backward pass size (MB): 0.03
Params size (MB): 8.02
Estimated Total Size (MB): 8.05
----------------------------------------------------------------
Epoch 	 Encd Train 	 Encd Valid 	 Ally Train 	 Ally Valid 	 Advr 1 Train 	 Advr 1 Valid 	 Advr 2 Train 	 Advr 2 Valid
…
