…
['y_advr_2_train']: (41283,)
['y_advr_2_valid']: (17693,)
================================================================================
['X_normalized_train']: (41283, 168)
['X_normalized_valid']: (17693, 168)
================================================================================
++++++++++++++++++++++++++++++++++++pca:ally++++++++++++++++++++++++++++++++++++
----------------------------------------------------------------
        Layer (type)               Output Shape         Param #
================================================================
            Linear-1               [-1, 1, 256]          33,792
              ReLU-2               [-1, 1, 256]               0
            Linear-3                 [-1, 1, 1]             257
           Sigmoid-4                 [-1, 1, 1]               0
================================================================
Total params: 34,049
Trainable params: 34,049
Non-trainable params: 0
----------------------------------------------------------------
Input size (MB): 0.00
Forward/backward pass size (MB): 0.00
Params size (MB): 0.13
Estimated Total Size (MB): 0.13
----------------------------------------------------------------
================================================================================
+++++++++++++++++++++++++++++++++++pca:advr 1+++++++++++++++++++++++++++++++++++
----------------------------------------------------------------
        Layer (type)               Output Shape         Param #
================================================================
            Linear-1               [-1, 1, 256]          33,792
              ReLU-2               [-1, 1, 256]               0
            Linear-3                 [-1, 1, 1]             257
           Sigmoid-4                 [-1, 1, 1]               0
================================================================
Total params: 34,049
Trainable params: 34,049
Non-trainable params: 0
----------------------------------------------------------------
Input size (MB): 0.00
Forward/backward pass size (MB): 0.00
Params size (MB): 0.13
Estimated Total Size (MB): 0.13
----------------------------------------------------------------
================================================================================
+++++++++++++++++++++++++++++++++++pca:advr 2+++++++++++++++++++++++++++++++++++
----------------------------------------------------------------
        Layer (type)               Output Shape         Param #
================================================================
            Linear-1               [-1, 1, 256]          33,792
              ReLU-2               [-1, 1, 256]               0
            Linear-3                 [-1, 1, 1]             257
           Sigmoid-4                 [-1, 1, 1]               0
================================================================
Total params: 34,049
Trainable params: 34,049
Non-trainable params: 0
----------------------------------------------------------------
Input size (MB): 0.00
Forward/backward pass size (MB): 0.00
Params size (MB): 0.13
Estimated Total Size (MB): 0.13
----------------------------------------------------------------
================================================================================
…
