…
['y_advr_2_train']: (41283,)
['y_advr_2_valid']: (17693,)
================================================================================
['X_normalized_train']: (41283, 168)
['X_normalized_valid']: (17693, 168)
================================================================================
++++++++++++++++++++++++++++++++autoencoder:ally++++++++++++++++++++++++++++++++
----------------------------------------------------------------
        Layer (type)               Output Shape         Param #
================================================================
            Linear-1               [-1, 1, 512]          67,584
              ReLU-2               [-1, 1, 512]               0
            Linear-3                 [-1, 1, 1]             513
           Sigmoid-4                 [-1, 1, 1]               0
================================================================
Total params: 68,097
Trainable params: 68,097
Non-trainable params: 0
----------------------------------------------------------------
Input size (MB): 0.00
Forward/backward pass size (MB): 0.01
Params size (MB): 0.26
Estimated Total Size (MB): 0.27
----------------------------------------------------------------
================================================================================
+++++++++++++++++++++++++++++++autoencoder:advr 1+++++++++++++++++++++++++++++++
----------------------------------------------------------------
        Layer (type)               Output Shape         Param #
================================================================
            Linear-1               [-1, 1, 512]          67,584
              ReLU-2               [-1, 1, 512]               0
            Linear-3                 [-1, 1, 1]             513
           Sigmoid-4                 [-1, 1, 1]               0
================================================================
Total params: 68,097
Trainable params: 68,097
Non-trainable params: 0
----------------------------------------------------------------
Input size (MB): 0.00
Forward/backward pass size (MB): 0.01
Params size (MB): 0.26
Estimated Total Size (MB): 0.27
----------------------------------------------------------------
================================================================================
+++++++++++++++++++++++++++++++autoencoder:advr 2+++++++++++++++++++++++++++++++
----------------------------------------------------------------
        Layer (type)               Output Shape         Param #
================================================================
            Linear-1               [-1, 1, 512]          67,584
              ReLU-2               [-1, 1, 512]               0
            Linear-3                 [-1, 1, 1]             513
           Sigmoid-4                 [-1, 1, 1]               0
================================================================
Total params: 68,097
Trainable params: 68,097
Non-trainable params: 0
----------------------------------------------------------------
Input size (MB): 0.00
Forward/backward pass size (MB): 0.01
Params size (MB): 0.26
Estimated Total Size (MB): 0.27
----------------------------------------------------------------
================================================================================
…
